lsy_drone_racing/control/ppo_drone_racing.ckpt (torch, 77927 bytes, 12 tensors)

actor_logstd f4 [1, 4]
00000000: 102f 64c0 62d5 64c0 7b59 53c0 61be 35c0
-3.5653725 -3.5755239 -3.3023365 -2.8397448

critic.0.weight f4 [64, 73]
00000000: f528 87bd 557b 3c3e 80ac 6b3e 5bc6 e0be
00000010: f43d 13bf bf79 de3d 9d60 0bbe 7c68 3dbf
00000020: eb9c 0e3f ea9c 1f3f 7297 9cbd f001 d43b
00000030: 18ba 833e 20ad 4d3f 4152 31be ef6e 41bf
00000040: 128b 233f 2369 6dbd e1d2 78bf 04ce 273f
00000050: 17b3 cabd c7c5 33bf 50a1 ed3e 6747 9dbd
00000060: a509 c0be b8e3 1b3f 80f2 02be 4f0c 40be
00000070: 0fb6 433e 6fe9 2c3e efab 65bd 3280 a53e
00000080: 1a23 42be 5fae 9ebe c1ff d43d f608 dabd
00000090: 7713 2bbc d434 843e c43c bdbd 1fee b83c
000000a0: be4f 57be 2083 27be 0418 2e3e bc1d c6bb
000000b0: a239 41bd 11a9 b63e b994 37bf aff0 b5be
000000c0: 9fda bc3d b26e 1e3e e25a 0ebc 25bc 5abe
000000d0: 55bf 5bbe 0298 c0bc 89d7 a9bb 117d 903b
000000e0: 0204 1b3d 72b8 e1bc 395f 963e 4e95 8fbe
000000f0: bcb6 18be a214 083e 7ce5 ac3d 2049 8ebe
00000100: 94c6 45bd 50c9 163e 3ead 2a3d cca6 153d
00000110: 8496 82be 51fe babe 3329 fcbd e8e4 bdbe
00000120: 5a55 863e 7d56 41be ac1c 4f3b fb20 253e
00000130: 5ce1 3d3d 6834 1c3a 6a99 44be 99d1 d73a
00000140: 2cd4 a5be 6653 483c a04f 743f 1743 fcbc
00000150: 65f2 f73b 8dcc 883d 1eb7 2c3f 34b8 dabe
00000160: d768 debe e935 0b3f a9ca a2be a5e3 4bbe
00000170: b5f9 e73e a5ee ac3b 3dab 3cbf 793a a23d
00000180: 48a1 b3bc 55af 9abe 6ad8 113f 8da9 a4bc
00000190: 401f fbbe 9c29 283c 6db3 27be a7fd 25be
000001a0: 13ac ad3d e328 243e bfc9 e1bd 5dc9 493e
000001b0: 337a b2bd bea4 93be 7b90 3b3d d659 ca3d
000001c0: 2cdb 933c 3fda 9ebd f4d3 563d a1fa 1c3c
000001d0: 5a3f 0cbe 5834 17be 0cc7 263e 10e6 b9be
000001e0: 7ead f0bd 095b 3c3e 87f1 923d d65a a8be
000001f0: c786 663e 86bc b3be 7b21 d2bc 3aa4 1bbd
00000200: 0474 b2bd c855 3ebe fa42 f13d ad07 b33e
00000210: 96c1 3cbe 61f3 9a3d 2bfa c8bd a30c f2bd
00000220: e023 d3be af1d 0e3e a27c 9d3d 9de0 1e3d
00000230: f857 8d3d 4fae 8fbd e9b4 f63c 8c8e 423d
00000240: 6f3d f13c 76ab 753e 5b81 5fbe b858 8d3d
00000250: 336f 1e3f 771a 74be 4fb9 a13e a2dc b53c
00000260: cca1 1dbe e804 353e 63fc 8a3e 3676 483f
00000270: 7f39 4bbd 9713 d3bb 39b0 14be 5321 e23e
00000280: b6fa 0abf 468d 4bbf 4e5b fb3e 50c9 03bf
00000290: 02aa e2be f6c9 b73e f4d1 e4be 98e9 073d
000002a0: 9512 e33d f3b6 20be 341f 93be aca7 f43e
000002b0: cb5a 4abe 9205 133d 7735 373e eeb6 21be
000002c0: 00e1 8ebe c8bf e73e 802a 07be 35db 183d
000002d0: 89aa d83d fa14 93bc d59d 6f3d daee 883e
000002e0: 6558 2f3e 93f0 d73d 5c78 683e 6c35 633d
000002f0: 402d 873c 8e21 d23b 224b 7ebe 9a04 bc3e
00000300: ccc1 fcbd 7ee6 2b3e 848f fc3e 8cac 1f3e
00000310: 37fe bebd 7fa5 d63d adad b5bd e251 b6bc
00000320: fdb4 24be 97cc 123e 66c2 3e3c 5fb7 113e
00000330: 47a0 1e3f f9b6 96be 87fd e03c 13b2 123e
00000340: 7a4a 1bbe 1e4a fb3d ff18 bbbe 3b6c 1bbe
00000350: e897 e33d f320 243e 406e b3bd 2621 f3bd
00000360: cb00 fb3d 332c c6be 2041 a83e 61b9 2ebe
00000370: 079a 60bd 8d31 5bbe 4014 123c b91b ad3d
00000380: b248 13be 3871 d6bb 8436 23be 8a38 a83e
00000390: 976b 19be 0602 aa3d dce7 60bd b4b7 863e
000003a0: b67d f13e dd7b 95be 3242 853f 1c6b c93e
000003b0: 4616 18bf 72a3 703f 26fb bb3e 74c4 edbe
000003c0: 66f0 8b3f 5243 cb3e 6c39 16be 29a7 663f
000003d0: 7ae5 f33d 7d02 95bd faae 1b3f 22b9 173d
000003e0: 8576 42bd 03e1 a13e d54f 28bd d48b ad3b
000003f0: 8ae3 033e 802e 023e f7e1 c4bc 3baa 343c
-0.06599609 0.18406422 0.23015022 -0.43901333 -0.5751641 0.10863065 -0.13611074 -0.73987556
0.5570819 0.62348807 -0.076460734 0.0064699575 0.25727916 0.8034229 -0.17316534 -0.75559896
0.6388408 -0.057961594 -0.97196776 0.6554873 -0.0989744 -0.7022366 0.46412134 -0.076796345
-0.37507358 0.60894346 -0.12787819 -0.18754695 0.19112419 0.16885923 -0.05607217 0.32324368
-0.18958703 -0.3099241 0.10400344 -0.106462404 -0.0104416525 0.25821555 -0.09240106 0.022574482
-0.21026513 -0.16358614 0.17001349 -0.006046025 -0.047174104 0.35675862 -0.7171131 -0.3553519
0.09221386 0.15471914 -0.00868866 -0.21360834 -0.21459706 -0.023509983 -0.0051831645 0.0044094403
0.03784562 -0.02755377 0.29369524 -0.28043598 -0.14913458 0.13289121 0.08442208 -0.27790165
-0.048285082 0.14725232 0.041669123 0.036536023 -0.2550546 -0.36522153 -0.123125456 -0.37088704
0.26236993 -0.18880649 0.0031602783 0.16125862 0.046357498 0.0005958737 -0.19199148 0.0016465663
-0.32388437 0.012226915 0.95434 -0.03079371 0.0075667375 0.0667964 0.67466915 -0.4271866
-0.4343936 0.54379135 -0.31795242 -0.19911058 0.453077 0.005277472 -0.7369879 0.07921309
-0.02192749 -0.30211893 0.56970847 -0.02010038 -0.4904728 0.010263827 -0.16377039 -0.16210042
0.08480086 0.16031222 -0.11024808 0.1970572 -0.08714714 -0.28836626 0.045792084 0.09880416
0.018048845 -0.07756471 0.052448228 0.009581239 -0.13696042 -0.14766061 0.16286868 -0.36308336
-0.11751841 0.18394102 0.07174974 -0.32881802 0.22512351 -0.3510477 -0.02565073 -0.037998416
-0.087135345 -0.1858741 0.11780353 0.34966794 -0.18433222 0.07565952 -0.09813341 -0.118188165
-0.41238308 0.13878511 0.076897874 0.038788427 0.06901544 -0.070156686 0.030115562 0.047499225
0.02944824 0.23991188 -0.21826689 0.069016874 0.61888427 -0.2383822 0.31586692 0.022199932
-0.15393752 0.17677653 0.2714568 0.78305376 -0.04961538 -0.0064415443 -0.14520349 0.4416605
-0.54288805 -0.7951244 0.49093097 -0.51479053 -0.4427033 0.3589627 -0.44691432 0.033181757
0.110875286 -0.1569479 -0.28734744 0.47784173 -0.19761197 0.035893984 0.17891489 -0.15792438
-0.27906036 0.45263505 -0.13199806 0.037318427 0.10579402 -0.017954338 0.05850013 0.2674473
0.17123564 0.10543933 0.22702163 0.05547087 0.01650107 0.0064126914 -0.24833348 0.3672226
-0.12341651 0.16787145 0.49328244 0.15593165 -0.093258314 0.104807846 -0.08871017 -0.022255842
-0.16084667 0.14335857 0.011643028 0.14230107 0.61963314 -0.29436472 0.027464641 0.14325742
-0.1516513 0.12269996 -0.36542508 -0.15178005 0.11112958 0.16028194 -0.08761263 -0.11871557
0.122560106 -0.38705596 0.32862186 -0.17062904 -0.054834392 -0.21405621 0.008915961 0.08452553
-0.143832 -0.0065442584 -0.15938765 0.32855636 -0.14982449 0.08301167 -0.05490862 0.2631203
0.47166222 -0.29196063 1.0410826 0.3933953 -0.59408987 0.939994 0.3671505 -0.46438944
1.0932739 0.396998 -0.14670342 0.90098816 0.119090036 -0.07275865 0.6081387 0.03704179
-0.04747631 0.31616983 -0.04109176 0.00529621 0.12879768 0.12713051 -0.02403353 0.011026914

critic.0.bias f4 [64]
00000000: a2f1 b93c eea7 033d cbb3 f83d 1b1e 5f3d
00000010: 7594 153e 9640 b73d 5c95 8abd 94a3 883e
00000020: 2022 603d 2050 2c3d daad 73bd ced2 2b3d
00000030: aa38 163e 267b 873d 9126 bfbb 50a9 3c3d
00000040: a466 74be b729 f13c ce4f 2dbd 3562 f4bd
00000050: 0fd7 68bd 6bd7 e1bd 8955 3a3e a813 033d
00000060: 0e35 ce3d 35d6 7a3d 6cd3 743c a487 0ebd
00000070: 1a79 08bd 67b0 e7bd efb0 863c ec39 3ebe
00000080: c106 19be 21fa 243d c84e 89bb ef19 153e
00000090: 6597 6bbd 3d14 ca3d 09ad fd3b c1a4 0a3e
000000a0: eb90 e7bd dae0 43be d036 013e f5a2 e5bd
000000b0: 1064 323e 6107 4ebd 2d5a 33be fb17 cebd
000000c0: 8e24 063d 0877 c9bd 7596 22be 7f21 03bd
000000d0: 2d40 c03d 9bed 843d 89dd 85be 3ca4 22be
000000e0: a133 05bd c9bb 9ebd fee5 843c 430b 113d
000000f0: f1e4 1fbd 98f3 793d 84ae 773b c643 453e
0.022698227 0.032142572 0.12143668 0.05447207 0.14607413 0.08947866 -0.06766769 0.266873
0.054720044 0.0420686 -0.05949197 0.041949086 0.14670053 0.066152856 -0.005833455 0.046059906
-0.2386728 0.029438837 -0.042312436 -0.11932794 -0.05684572 -0.11027416 0.18196692 0.032001168
0.10068713 0.06123944 0.014942985 -0.034797326 -0.033318616 -0.11312943 0.01644179 -0.18576783
-0.14943983 0.040277604 -0.0041902997 0.14560674 -0.057517428 0.098671414 0.0077415747 0.13539411
-0.11306938 -0.19128743 0.12618566 -0.11212722 0.17420983 -0.050300006 -0.17514868 -0.10063168
0.032749705 -0.098371565 -0.15877707 -0.032014366 0.093872406 0.06490632 -0.2614558 -0.15882963
-0.03251994 -0.07750661 0.01622295 0.03541113 -0.039036695 0.061023325 0.0037793228 0.19264135

critic.2.weight f4 [64, 64]
00000000: 3abc 253d 41a3 f4be 1e53 9a3e e76a b03c
00000010: df0d 5e3d ec37 8a3e 6900 04bf 06ca 383e
00000020: 54fd afbe 66c8 0b3d 78b2 6ebe 408b 14be
00000030: 43d6 083d 9df2 1d3f b777 bfbd 5d98 8c3d
00000040: 4ef4 b33d 6a3f a2bc a9e1 36bc 377c adbd
00000050: 09a4 433e 0a95 c03e 7f10 0d3e b943 12bd
00000060: 1b77 8d3c c308 6c3e b1e1 093e 5a35 aa3d
00000070: d5de 45be f69b 88bd 0bf4 24bf 8e2f e6bd
00000080: 2afd 473c dd57 4d3d 78f3 f7bd 648f 9bbe
00000090: 803d d5be e34f 9f3d 2ef4 4d3d fd87 00be
000000a0: c8da 83be add0 5e3e e42f 533e efa9 163e
000000b0: 1838 ec3e ba8f 323e 0b3a e5bd 40f1 b63e
000000c0: 4c19 20be b4a2 5bbd 1e45 5cbe 803a c2be
000000d0: c24d 1d3f 75d8 52bf b247 9abe fe53 cabd
000000e0: 14b4 0e3f fe75 99bc 4632 8cbc fc56 6f3e
000000f0: 5efb a93e 77f2 133f 4ee7 ea3e fd1e 2dbd
00000100: 1ad5 d9be 899a 58bc 5b50 f9bd 561a 9d3d
00000110: d0e3 b2bc 8cb0 db3e 47ea 31bd e03c b0be
00000120: 95d4 5abe 6b73 fdbd ec2c aa3e b698 83bd
00000130: 5e38 d1bd 0349 143f 9fb5 a53e 6820 b53d
00000140: 2088 41be 1b67 23be 23ec 5c3e e578 c93e
00000150: 0316 4ebd c49f 653e 9f72 213e 7ae8 3c3e
00000160: 4636 43be 2a53 47bc a5a2 803e 641a 3bbd
00000170: 0d33 663d 82af 94bd 472f 143e 023a b93e
00000180: 9fa8 093e f459 bb3e c505 5d3e 364e 09bc
00000190: 6851 75bd 089e 343e 3a9d 8cbe a291 bd3e
000001a0: 268a 9cbe 2515 863d fbe4 0cbe bb21 c2bd
000001b0: 70d2 35be 20c6 61bc ace5 99bd f366 f4be
000001c0: 249d 8fbd 64e1 0d3f e788 953e f368 493e
000001d0: 2131 f4be 0c58 47bd 1738 b93d 6d1b 233e
000001e0: 7e76 813e 5dd0 2c3e 8941 ad39 384e 913d
000001f0: fb61 1cbe eb9b 0e3f 38c5 ebbe 805e 66be
00000200: 6251 e5bd 9177 d0bd b97f 503e 65ea 02be
00000210: 4bc9 d1bc c144 7ebe fd4a 1fbe 78d1 693e
00000220: 71ab 82be 4b06 9cbe 390e aa3d 10f4 973e
00000230: ea49 adbd 34a3 c43d b95a 3fbe 58f1 653e
00000240: 3d34 05bf c6a5 edbd 944e fabd 8df2 f4be
00000250: a5da 5ebd 7eca 8b3d 24b3 853d 90ce e43d
00000260: e16c 063e 1201 9cbd 2bfa e8bd 94cb f83d
00000270: f408 ea3d 9086 9e3d dc96 95be fd74 8cbd
00000280: 17e0 3e3e c287 5f3e 094c a5be bb2c 0bbc
00000290: ac98 40be 9a6a d7be 3467 0dbe 0b03 8f3e
000002a0: 6360 fd3e db82 20be 7572 973d c2f0 b43d
000002b0: 8666 e9bd 12f2 17bd e617 d83d b527 453e
000002c0: f535 02bf 1cd4 ed3b 9c9b 193d 3364 10be
000002d0: 66c7 67be e26b 18be e775 d53d adda a5be
000002e0: 3058 1ebd 5dc1 243d 8de3 5abe fb2d 79be
000002f0: 7b99 2a3e 35dc 043f 8bfd d0bd 78e3 2f3b
00000300: afd6 30bf c477 02bf 91c6 2abf c18a f2bd
00000310: bd50 d83d bf61 e1bd 6b4f 0e3d bb05 69be
00000320: bb99 49be 9d35 ad3e cc79 f43d 01cb 823d
00000330: 534a bebe 02ca 423d 96d0 62bd 2ec9 b2bd
00000340: c159 72bd 336e 38be 0da2 1f3f 0adf 5abe
00000350: 25fb 293f 1c9e 193e ec1b ddbe e973 b6bd
00000360: 0c03 87bd d625 bebe 0d8a 313f 1bf5 123e
00000370: ff0e 2dbd 6a6a 55be 5167 883f 384a 303e
00000380: 89a0 dd3d ea03 2fbe 6a94 b43e 4a26 3ebf
00000390: 0b9e 66bd a37b 043e 9fe2 89be 19bc 023e
000003a0: 1193 0f3d e44a 3b3e 71a0 7f3e b3fa 4ebd
000003b0: edef ecbd 49f5 32bc 3aae 9cbe 89eb 343e
000003c0: be8c 27bc 8eac c83e 1af4 d53e bf89 a53e
000003d0: 80fd dbbf d20d 82ba 657a 703e c8f5 6b3e
000003e0: 1260 943e ade8 d83d cf9f 39be dc07 fe3e
000003f0: bead 32be e175 4a3d b4d2 19bf b83e d2bd
0.04046271 -0.47780803 0.30141538 0.02153535 0.054212447 0.2699579 -0.51563126 0.18045816
-0.34372962 0.03412666 -0.23310268 -0.14506245 0.03340746 0.61698323 -0.09349006 0.068649985
0.08786832 -0.019805629 -0.0111622 -0.08470958 0.19105543 0.37613708 0.13775824 -0.035709117
0.017268708 0.23050217 0.13465 0.08310957 -0.19323285 -0.06670372 -0.6443488 -0.11239539
0.012206355 0.05013262 -0.12106985 -0.30382836 -0.41648483 0.07778909 0.050281696 -0.12551875
-0.25752854 0.21759291 0.20623738 0.14713262 0.46136546 0.1743764 -0.111927114 0.35730934
-0.1563465 -0.053621963 -0.21510741 -0.37935257 0.61446774 -0.8236154 -0.30132824 -0.098793015
0.5574353 -0.01873302 -0.017113816 0.23373026 0.3319959 0.57791847 0.45879596 -0.04226588
-0.42545396 -0.013220438 -0.1217353 0.07671039 -0.021837145 0.42908132 -0.043436315 -0.34421444
-0.21370156 -0.1237553 0.33237398 -0.06425612 -0.10215829 0.5792391 0.32365128 0.088440716
-0.18899584 -0.159573 0.21574454 0.39350048 -0.05031396 0.22424227 0.1576638 0.18448058
-0.19063672 -0.012165824 0.25124088 -0.045679465 0.05620103 -0.07260038 0.1447116 0.3617707
0.1344323 0.36592066 0.21584232 -0.008380463 -0.05989209 0.17638409 -0.27463704 0.37025172
-0.3057415 0.06547002 -0.13759224 -0.0947909 -0.17756057 -0.013780147 -0.075145096 -0.47734794
-0.07012394 0.55422044 0.2920601 0.19668941 -0.47693732 -0.048667952 0.090439014 0.15928431
0.25285715 0.1687636 0.0003304596 0.07094997 -0.15271752 0.5570666 -0.46048903 -0.22496986
-0.11197163 -0.101790555 0.20361222 -0.12784727 -0.02560868 -0.24830915 -0.1555595 0.22833812
-0.25521424 -0.3047355 0.08303494 0.29678392 -0.084613636 0.09601441 -0.18686952 0.22455347
-0.52032834 -0.116038844 -0.12222019 -0.47841302 -0.054407734 0.06825732 0.06528309 0.11172211
0.13127472 -0.07617392 -0.11375841 0.121482044 0.11427489 0.077405095 -0.2921666 -0.06858251
0.18640171 0.21829131 -0.32284573 -0.008494551 -0.1880824 -0.42073518 -0.138089 0.2793201
0.494876 -0.15674917 0.07394878 0.088349834 -0.11396508 -0.03709609 0.10551433 0.19253428
-0.5086358 0.0072579514 0.037501916 -0.14100723 -0.22634658 -0.14884904 0.10422879 -0.323934
-0.03865832 0.040223468 -0.21375866 -0.24333946 0.1666011 0.5189851 -0.102046095 0.0026838463
-0.6907758 -0.50964 -0.6670924 -0.118428715 0.105622746 -0.11004972 0.034743708 -0.22756092
-0.1968755 0.33829966 0.119372934 0.06386376 -0.3716608 0.04755593 -0.055374704 -0.08729778
-0.059167627 -0.18010788 0.62356645 -0.21374145 0.6639884 0.1500172 -0.43185365 -0.08908827
-0.06592378 -0.37138242 0.69351274 0.14351313 -0.04225063 -0.20841375 1.065653 0.17215812
0.10821635 -0.17091337 0.3526948 -0.74277174 -0.056303065 0.12937789 -0.2693071 0.12767066
0.035052363 0.18290287 0.24963547 -0.050532054 -0.115692 -0.010922738 -0.30601674 0.17667975
-0.010226427 0.3919415 0.41787797 0.32331654 -1.7186737 -0.0009922332 0.2348419 0.23042977
0.28979546 0.105912544 -0.18127368 0.4961537 -0.1744909 0.049428824 -0.6008713 -0.10265869

critic.2.bias f4 [64]
00000000: ef79 90bd 8e39 333d 1ce0 babd 4ca0 d6bd
00000010: 2eb3 833d 459e f53c e722 e23c 9862 f33c
00000020: d166 033c 7125 4fbd f2f2 adbc 58ad 0dbc
00000030: b71d bdbd 556f 15bd a12e 83bc 872e 273e
00000040: 0d81 b53c 3580 fe3b 060d b33c a0ea 57bd
00000050: 7f5b ad3c e1aa d13c b097 57bd 5534 99bc
00000060: 0a3f 1fbb 8a9d ac3c e326 03bd c67d 693c
00000070: 6611 40bb ffcc 0c3d 3c56 653d 8e46 2fbd
00000080: 97db 033d 958f eebc c568 08be 25d4 7ebb
00000090: 8807 ba3d 4aa0 cb3b 4cdb 913c a4d4 13bc
000000a0: ba87 f8bb 1dfd 9a3c 6f64 3e3c e681 f2bc
000000b0: 08e9 5f3e 7333 143d 8d80 673d d24b 00bc
000000c0: c5d9 0a3e 6943 2dbd a8c4 8d3d 4285 e6bc
000000d0: 7242 8cbc d561 1c3d f9ba e539 6072 85bd
000000e0: 20ac 33bd 506a a43c b451 723d 8c85 dc3d
000000f0: aef9 633d ef9a e23c 7ad7 cabc ad74 9a3d
-0.07054507 0.04375606 -0.09124777 -0.10479793 0.0643066 0.029982695 0.027604533 0.0297101
0.008020119 -0.050572816 -0.02123401 -0.008647285 -0.09234183 -0.036483128 -0.016013445 0.16326343
0.022156263 0.0077667483 0.021856796 -0.05271399 0.021161793 0.025594177 -0.052634895 -0.018701712
-0.0024299049 0.021071214 -0.032019507 0.014251178 -0.0029307245 0.034375187 0.055990443 -0.042791896
0.03219184 -0.0291212 -0.13321216 -0.0038883772 0.09083468 0.0062141763 0.017804764 -0.009022865
-0.0075845392 0.018919522 0.011620625 -0.029602956 0.21866238 0.03618188 0.05651908 -0.007830577
0.13559635 -0.042300615 0.06922275 -0.028139714 -0.017121527 0.038179237 0.0004381759 -0.06515956
-0.043865323 0.020070225 0.05915995 0.107676595 0.055658035 0.027661769 -0.02476095 0.075417854

critic.4.weight f4 [1, 64]
00000000: 8316 dc3e 82dd d2be ef95 cfbe bca4 26bf
00000010: 3a43 9dbe a83b a73e 0559 d5be 114b 123e
00000020: bb84 a33e c156 f0be 1e8d b0bb c5ae f7bd
00000030: bf25 c13e 49ce d93e adcd ce3e e1a6 d03e
00000040: 386a 1d3e ff88 a1be 3630 933e b57a d0be
00000050: 366d 6ebe a138 993e 6572 dcbe 6e7e 48be
00000060: b8b9 653e b967 833e 4531 8a3e 1cd0 a9be
00000070: 67cc 2f3e 7006 c0be 76e1 dc3e b4ee 2cbe
00000080: 8da6 a33e 5caf a1be 216c 88be 5d15 90be
00000090: c795 d1be 09b3 fbbe 03a3 473e e16d a4be
000000a0: ecf7 a33e 6c24 93be 344c 82be 80d6 95be
000000b0: 2d09 b63e e517 dcbe ff4f b6be 3555 b7be
000000c0: 8816 f73e 1a93 a5bd 42b5 a33d fb14 b1be
000000d0: 182f b33e 6e70 e63e 61da 42be 6710 4e3e
000000e0: cc47 bb3e 7802 993e 4d3a 5a3e 9e0f 053f
000000f0: 03c9 a23e 50c3 f0be eadc fabe 8634 b73e
0.42985925 -0.41184622 -0.40544078 -0.65095115 -0.30715352 0.32662702 -0.4166948 0.14286448
0.31937203 -0.46941188 -0.005387916 -0.120938815 0.3772411 0.42540196 0.40391293 0.40752319
0.1537255 -0.31549832 0.2874772 -0.40718618 -0.23283848 0.29926017 -0.43056026 -0.19579479
0.22434127 0.25665072 0.26990715 -0.33166587 0.17167817 -0.3750491 0.43140763 -0.16887933
0.31963006 -0.315791 -0.26644996 -0.281413 -0.40934584 -0.4916003 0.19495778 -0.3211508
0.32025087 -0.28738725 -0.25448763 -0.29265213 0.35553876 -0.4298698 -0.35607907 -0.35807195
0.48259377 -0.08084698 0.079935566 -0.3458632 0.34996867 0.45007652 -0.19028617 0.20123444
0.36578214 0.29884696 0.21311302 0.51976955 0.31793985 -0.47024012 -0.4899667 0.3578226

actor_mean.0.weight f4 [64, 73]
00000000: 76fe f0bc 9dd7 32bc b90b 24be 976d d8bd
00000010: 1e14 87be dfd7 483e fc1e 87be 6180 7f3e
00000020: a028 fa3d 7fe0 423d a308 45bc 1729 1d3e
00000030: 027f ee3e 5595 b53d c65c 933c 5305 583e
00000040: bbd3 2f3d 39d4 9bbe 3c5d b1be f771 733e
00000050: eca3 923d 3a15 013e 63ce bb3b d2fe 54be
00000060: 3f28 58bd e470 c03b e4ad ebbe e747 04bb
00000070: 4468 0a3d c48e b6be dda9 9abe cdc2 0c3e
00000080: f219 753c 9b22 053e 115d 3fbd a244 96be
00000090: a528 56be d1e9 423c 4708 c3bd 18d2 71bc
000000a0: 03de 9ebd e3c9 223d 9873 42be 7b4e 3cbd
000000b0: 72d4 eb3c e200 3ebe 0ad5 e1ba 0c8b 0ebe
000000c0: fc8e 1c3d 649c babc 81ec 81be 98c0 883e
000000d0: 0afe 183e c822 193d e826 46be 8251 833c
000000e0: 4ac4 633e 2543 0c3d 886a 333c 0854 62be
000000f0: 0f9b fdbd 6b32 6f3d 0f37 23bd 496e 133e
00000100: e29c 383e c826 8fbe d508 41bd 4440 113c
00000110: 0b3f 1d3d 43b1 d5bd e65d d5be fddb 113f
00000120: adec acbe 01bd 63be fb45 0abd f6b3 cd3d
00000130: f8bf 0abe d0ce bfbd dd21 de3c bbb2 8dbd
00000140: 4495 9c3d a09f 623c 5e80 4cbe 64f5 fbbd
00000150: a5cd 95be c537 7bbd 3041 963e 8c0f 36bd
00000160: a394 633d 307f f63d 24dd fbbb 4deb 50bd
00000170: d33f 0ebe 5b45 9bbb c196 2b3e 550c 9f3d
00000180: c51f a63e 54fd 1ebe 8285 bdbd 6b5d e13d
00000190: 82bf fb3d ee99 fcbd fd7c 80bd c845 7b3d
000001a0: 116f 693e 4f34 2bbd 480d b73d 7bd3 b03e
000001b0: e16d 3fbe f1b6 243e 570b ecbb bb63 b83c
000001c0: f537 4c3e 2798 723d 1ecd b5bd d1c7 993d
000001d0: 3d95 fb3c 2031 7ebe 4939 923e b1c7 77be
000001e0: b3ec 373e 56b0 6a3e 8d41 f7bd 5632 5a3e
000001f0: 0446 a13d 8ebf 823e c4f5 c53d eef6 063f
00000200: 42bc b0be 1781 c3bd c533 0f3e a002 1a3e
00000210: 3754 57be ee14 a23e 8b5f 233c fa7a bf3e
00000220: 01a0 39bc fd01 373d 614b 213c b367 d13c
00000230: e19f f13c 0d66 a8be 72b6 1fbf b9ec a2be
00000240: 4383 603e c272 33be 99cb 0bbd 2f59 b83e
00000250: 3afe 153e 6420 4f3d 4382 df3d e795 a73d
00000260: c7c9 11be 2fca 2ebe 1ad9 cd3b da2c 523d
00000270: e074 663d 2c21 b53d 5954 78bc 89b3 a2bd
00000280: cbf5 29be f949 e13c 5e91 7bbe 18c5 5cbe
00000290: 9ab0 59bd 4c7a a73b 7099 aa3c faeb 533d
000002a0: 41d8 0ebe a02b 8ebe 58b1 e13c 3467 36bb
000002b0: 52b5 8e3c 80bd ab3b b63d 0fbe 4f3b bb3d
000002c0: 8067 863d 60b3 f83e e6be dcbc 4f3d 09be
000002d0: 31c2 9c3e 05ff b83d f112 73be 3f35 0e3e
000002e0: 4db9 003e 7944 e83d ee3e ebbd 9e6b 203e
000002f0: 2070 20be d8fb 053d 1a36 bfbc 4190 4bbd
00000300: 75ce ca3d 1f0c babe 3c0c 12be 7a9d 07be
00000310: 4314 0c3e e072 6b3d 790e 673e 3787 74be
00000320: d651 4dbc 042c 7bbe 1ad2 db3d 79d4 b53c
00000330: f51c 04be be62 f03d b1ca d1bd 1279 143e
00000340: e67c 623d 16ce 853e 23b6 483d e4d3 933e
00000350: 97c0 013e f970 e13c 9c73 ff3d 5ad3 053d
00000360: 8da2 ed3e dc71 87bf 690b 61bd 01fd 62be
00000370: 586d 8ebe 56e9 983e 8cbf 11bf abec e7be
00000380: 5821 693e 7684 fdbc 6e83 c2be 1580 b23e
00000390: f640 c0bd 9292 0f3d 5bd2 28bd c36f 0bbe
000003a0: 8eb9 c23e 01c1 1abf f6c3 043e bf49 973e
000003b0: c640 2cbf ab65 993e 3808 943e ae1b 76be
000003c0: 76bd 623e 427a bf3e 4753 c3be 0f5f 4e3e
000003d0: fb70 ad3e 1c78 bbbe 1f86 f73d 187e d53e
000003e0: 225c a3bd 76f7 773e 4ff1 4d3e 3415 b9be
000003f0: 80dd a43d 26b0 153e 3d70 96be c618 113e
-0.029418211 -0.010915664 -0.16020097 -0.105677776 -0.26382536 0.19613598 -0.26390827 0.24951316
0.1221478 0.047577377 -0.012025985 0.15347706 0.46581274 0.088663734 0.017988574 0.21095781
0.04292653 -0.3043535 -0.34641445 0.23773943 0.07160172 0.12605754 0.0057313903 -0.20800331
-0.052772757 0.0058728326 -0.46031106 -0.0020184459 0.03379084 -0.35655797 -0.3020772 0.13746186
0.014959799 0.13001482 -0.046719614 -0.29349238 -0.20913942 0.0118965665 -0.09523063 -0.014759563
-0.07757189 0.039743315 -0.18989408 -0.045973282 0.028787825 -0.18555024 -0.0017229628 -0.1392023
0.038222298 -0.022779651 -0.2537575 0.26709437 0.14940658 0.037386686 -0.19350779 0.016030077
0.22242847 0.03424372 0.010950692 -0.22102368 -0.12383091 0.05839769 -0.03984743 0.14397539
0.18028596 -0.27959275 -0.047127564 0.00886542 0.0383902 -0.104342006 -0.416732 0.569763
-0.3377432 -0.22240068 -0.033758145 0.100440904 -0.13549793 -0.09365618 0.027115757 -0.06918856
0.07645658 0.013832003 -0.19970843 -0.12302664 -0.29258457 -0.061332483 0.2934661 -0.04444842
0.055561673 0.12035978 -0.007686274 -0.05100565 -0.13891535 -0.0047384924 0.16756727 0.07766024
0.32446113 -0.15526325 -0.0925398 0.11004146 0.122923866 -0.12334047 -0.062738396 0.061345845
0.22796275 -0.041797932 0.0893808 0.34536347 -0.18694259 0.16085412 -0.0072035003 0.022508493
0.19943221 0.059227135 -0.088770136 0.07508815 0.03071081 -0.24823427 0.2855933 -0.2419727
0.17961387 0.2291883 -0.1207305 0.21308264 0.078746825 0.2553677 0.09666017 0.52720535
-0.3451863 -0.09546106 0.13984592 0.15040064 -0.21028219 0.31656593 0.00997151 0.3739851
-0.011329652 0.04467963 0.009844632 0.025562143 0.029495182 -0.3289036 -0.62387764 -0.3182123
0.21925072 -0.17524245 -0.034129713 0.36005542 0.14647761 0.050568 0.10913517 0.081828885
-0.14237128 -0.17069314 0.006281984 0.051312305 0.056263804 0.08844218 -0.015156829 -0.079444
-0.16597669 0.027501093 -0.24567172 -0.2155956 -0.053146936 0.0051110145 0.020825118 0.051738717
-0.13949682 -0.27767658 0.027550384 -0.002783251 0.017420445 0.005241096 -0.13988385 0.091421716
0.0656271 0.48574352 -0.026946496 -0.13402294 0.30616906 0.09033016 -0.23737694 0.138875
0.12570687 0.11341185 -0.11486612 0.15666053 -0.15667772 0.03271088 -0.023341227 -0.049698118
0.0990266 -0.36337373 -0.1426248 -0.13243666 0.13679604 0.0574826 0.22564115 -0.23879705
-0.012531718 -0.2452851 0.10733433 0.022196041 -0.12901671 0.117375836 -0.102437384 0.1449931
0.055294894 0.26133794 0.049001824 0.28872597 0.12671123 0.02751969 0.124732226 0.032672264
0.4641308 -1.0581622 -0.054942522 -0.22166826 -0.27817798 0.2986552 -0.569329 -0.4529775
0.22766626 -0.030946951 -0.37990898 0.34863344 -0.0938739 0.03505189 -0.041216236 -0.13616852
0.38032192 -0.6045075 0.12965378 0.2954845 -0.67286336 0.2996038 0.2891252 -0.24033996
0.22142586 0.37397963 -0.38149473 0.2015345 0.3387526 -0.36615074 0.120861284 0.41697764
-0.07976557 0.24215493 0.20111583 -0.3614899 0.0805006 0.14617977 -0.29382506 0.14169607

actor_mean.0.bias f4 [64]
00000000: 2095 5abd a531 c93c ceba 2fbd 4644 263d
00000010: bd1d 643d 6dba 1fbe ad3a d23c 3405 a13c
00000020: 43d9 503d 72ae c23d a9c1 f2bc cfb2 983d
00000030: eff0 9eba e26b 843d 1f58 05bd f110 0cbd
00000040: 237d 7dbd b749 243d 8ab0 3cbc 3fa5 89bd
00000050: 2a40 943d 4afd ca3d 31fe a03c 9023 cebd
00000060: 692a f33b 2685 a4bc 8341 d83d 1536 8a3c
00000070: 413d 12bc 12a3 813d f729 28bd e946 91bc
00000080: 81a2 78bb ff69 8fbd 497c 7cbd 831b ccbc
00000090: aeb5 873b d85a 303d baca 483c 0d8a eb3b
000000a0: 05d2 91bd 8406 88bd f1b1 1a3d 0ce7 2e3c
000000b0: 4c59 f33c 109e 7cbd ea77 cdbc 7d9f 833c
000000c0: f619 7ebc f9ad 9b3d 4a48 0fbe 4856 803d
000000d0: 6157 d6bc d32f 4fbb 8ebe 923c a476 903d
000000e0: 358f ce3c 24da 673b 733c 05bc 1849 8b3d
000000f0: 9d6f 32bd 2412 3fbb 14da aabd 64c1 0dbd
-0.053364873 0.024559805 -0.04290276 0.040592454 0.055692423 -0.1559846 0.025662744 0.019655801
0.050988447 0.09505929 -0.02963336 0.0745598 -0.0012126247 0.064658895 -0.032554742 -0.034195844
-0.061886918 0.040109362 -0.0115167 -0.06720971 0.07238801 0.09911592 0.019652458 -0.10065377
0.007420827 -0.020083021 0.1055937 0.016871491 -0.008925737 0.06329931 -0.041055646 -0.017734008
-0.0037938657 -0.07002639 -0.061641965 -0.024915462 0.004141531 0.043055385 0.012255365 0.007188088
-0.07120136 -0.06641868 0.037767354 0.010675203 0.029705666 -0.061674178 -0.025081594 0.01606726
-0.015509119 0.07601542 -0.1399242 0.06266457 -0.026164712 -0.0031614199 0.01791313 0.07053879
0.02521477 0.0035377825 -0.008132088 0.06801051 -0.043563474 -0.00291551 -0.08342376 -0.03460826

actor_mean.2.weight f4 [64, 64]
00000000: a04c 15bc 211b 453e 154f 443e bb42 c63e
00000010: 6c13 273e b20a 023c 4414 643e 3707 dfbd
00000020: 85ab 23be de24 8a3d 5f82 bf3b 0a8e 993e
00000030: edc4 4e3e 1094 563e b40a 72bd 4dd0 863e
00000040: cf18 bdbc c788 debd 9d08 babd 7e50 d93d
00000050: 10c2 363e 0047 093e 6b31 183e 3d5f 4cbe
00000060: 373c 893e 9d6d 9a3e 2e37 8dbd 077e 9cbb
00000070: d585 e63e d982 943e e88c 1abe b42c c93d
00000080: b00c 23be 9a2a 2cbe 9294 c8bd dd7e 403e
00000090: e4cc 6e3e 67b6 043e b3df d9bd 54c7 b93d
000000a0: ac04 4abe ba05 103d 54c1 19be 9dbf 1d3e
000000b0: 72d4 30be aec1 ab3e c38a b23c 0661 5d3e
000000c0: 49a9 d2bd 31d5 723d 196d 9fbe 9794 a93c
000000d0: 37c9 93be 9da9 5dbe 9d24 d53c 34a3 713e
000000e0: 69f0 dabc 00ba 13bd d372 c2bc 2521 f3bc
000000f0: 888e 573c 5e82 b1bb 5ebe 8cbd e5ba c63d
00000100: 464d 1dbc a32f ab3e 9fb7 3f3d 5b9a 55bd
00000110: 12b8 6abe c3d1 183e 7bba e7be 5c8c fdbd
00000120: 67d5 4a3d 288e 80bd 7e59 5dbe 93df 9f3c
00000130: b91b 533e 8255 54bd e4e3 6c3d 636e ecbd
00000140: 5047 013d 1dcc ac3e 3ddc f9bd 58de b9bb
00000150: 79ae c63d 7288 693e c7cc 7c3e 4c59 1cbe
00000160: 9526 d1bc 0bb1 313c b7d2 813e 6329 3ebe
00000170: 8c3e c9bd e4d0 093e d6ea f63d b2f4 33be
00000180: 4f1e ea3d 2087 7f3d 85e8 46be 719a 31be
00000190: 9205 6c3e 266d 413e 1e06 8a3d b0d6 153e
000001a0: 6ff1 cc3e 7b8b 5a3d 0e27 20be 5094 a03c
000001b0: 45e2 bcbd 61f2 743d 908e db3d 997b a83d
000001c0: cbe9 8e3e d9c0 8739 23d0 733e c44f 8a3e
000001d0: a97a 40be 000a 373e 068c 3e3d fe33 54be
000001e0: 9bac d93d 8eaa 42be 725d 6e3d 223e bd3d
000001f0: 3da4 b63d 24ab e83d fbab 6f3c 29b0 0b3e
00000200: b8c8 87bc 563d ea3c a8c7 34bc 1637 a43c
00000210: ad9e e2bd 7da9 8fbd 9964 943e 4a0d 5f3e
00000220: 91f7 96be 3523 79be 54ff ef3d c0c7 46bd
00000230: 18b1 08bf 9a7b 3e3e 822e f83e 4bbd c23e
00000240: da76 eabc d334 79bd a61c c03d 7f75 133d
00000250: d5ef 50be 8678 e6bd c676 cb3d 5c3f b03c
00000260: f83d 98be d73c bf3d 83e6 353e 1ccd 973e
00000270: cd7b 8e3d 5cfb ba3c 645c 1dbd c908 ecbc
00000280: e137 cbbe cd89 41be 1988 f13d 1162 053e
00000290: 93f3 99be 7220 dcbd f93e 50be ab16 073f
000002a0: 8681 803e 60b3 b13d 52bd d5bd de83 953d
000002b0: 1ce3 753e 1e24 4b3d 0219 82be a883 47be
000002c0: 6d54 423e 2c88 2cbe dc71 2f3e b2c0 163d
000002d0: 4a6e fc3e 7434 803d 8e07 d13c 41a7 e73d
000002e0: aef4 71bc 2d44 5dbe 34d0 4e3e c21c 56bd
000002f0: e895 f0bd f8f8 f73d 94ca b73c b8e6 6ebe
00000300: 2a50 d03c 7bc3 9b3d 3657 13be 5ecd 31bc
00000310: fcd6 dbbd f67b e2bd 20c8 9abd e64c 57be
00000320: 3fba 5dbe 6a07 8bbe 4eed 43be c386 95be
00000330: e462 72be fcc7 4f3d f514 4e3d e2c7 823e
00000340: 8071 a1be c393 bbbe 2a49 cd3d 0d19 4c3b
00000350: 6fe8 b1bd 33e2 d1be ab83 623e e273 7b3d
00000360: 8111 843c e7ec 103d 7c7e 293e 383c 6a3e
00000370: 801e f0bd bd2f e03d ea47 a63d 58de ba3c
00000380: 4202 003d fcc1 fabd f457 2c3d b152 07be
00000390: 116a abbe 1fdd 06be b401 073f f5bb b0be
000003a0: 18dd 31be 120b 923c d690 febd f672 0ebe
000003b0: a282 2bbe e830 883e bff7 33be c897 56be
000003c0: f59a a33e f3dc aebd 4e91 4a3e 39c8 7f3e
000003d0: d9a2 4b3e f508 473e 9db6 813d 36ec 3f3d
000003e0: 9145 4abd baf2 0a3d 1a09 8b3c 5dae 4cbd
000003f0: c96d 52bd 2055 20be 5da4 2bbe 9e16 d73d
-0.009112507 0.1924863 0.19170792 0.38722786 0.16316003 0.00793712 0.22273356 -0.10890048
-0.15983398 0.06745313 0.005844399 0.2999118 0.20192309 0.20954919 -0.05909224 0.26330796
-0.023083119 -0.10865932 -0.09083674 0.10611056 0.17847466 0.1340599 0.14862601 -0.19958206
0.26803753 0.30161753 -0.0689529 -0.004775766 0.4502398 0.2900608 -0.15092814 0.098229796
-0.15922809 -0.16813126 -0.097939625 0.18798395 0.23320347 0.12960206 -0.1063837 0.09071222
-0.19728345 0.03516171 -0.15015155 0.15405126 -0.17268541 0.33546203 0.021794682 0.21619043
-0.10286195 0.059285346 -0.31137922 0.020700736 -0.28864452 -0.21646734 0.026018435 0.23597413
-0.026725965 -0.036066055 -0.023736393 -0.02967889 0.013156541 -0.0054171523 -0.06872247 0.09703616
-0.009600943 0.3343478 0.046805974 -0.052149158 -0.2292178 0.14923768 -0.4525946 -0.12380287
0.049519923 -0.06277114 -0.2161617 0.019515788 0.20616044 -0.05183936 0.05783452 -0.11544492
0.03156215 0.33749476 -0.1220021 -0.0056722574 0.09701247 0.22805956 0.24687491 -0.15268439
-0.025531093 0.010845433 0.25356075 -0.18570475 -0.09826383 0.13458592 0.1205651 -0.17573813
0.11431562 0.062384725 -0.19424637 -0.17344071 0.23049 0.18889293 0.06739448 0.14632678
0.4002795 0.053355675 -0.15639898 0.01960197 -0.09222845 0.059801463 0.10720551 0.082266994
0.27912745 0.0002589289 0.23809867 0.2701398 -0.18796791 0.17874908 0.046520256 -0.20722958
0.10628625 -0.19010374 0.058194585 0.092403665 0.08918045 0.113607675 0.014628406 0.13641419
-0.016575202 0.0285937 -0.01103393 0.020045798 -0.11065421 -0.07014749 0.28983 0.21782413
-0.29485753 -0.24329837 0.11718622 -0.04853034 -0.53395224 0.18601838 0.48472983 0.38035044
-0.028621126 -0.060841393 0.09380464 0.036000725 -0.20403989 -0.11253457 0.099347636 0.021514587
-0.29734778 0.09337776 0.17763714 0.29648674 0.06957207 0.022824936 -0.03841819 -0.028812783
-0.3969107 -0.18900223 0.11793537 0.1302569 -0.30068645 -0.10748376 -0.20336522 0.52768964
0.2509882 0.08676791 -0.104365006 0.07300542 0.24012417 0.04959499 -0.25409704 -0.19483817
0.18977518 -0.1684882 0.17133278 0.036804862 0.49302894 0.06260005 0.025516298 0.11311198
-0.014767809 -0.21608038 0.2019661 -0.05227352 -0.11747342 0.12108034 0.022435464 -0.233302
0.02542885 0.07605644 -0.14388737 -0.010852186 -0.107343644 -0.110588 -0.07557702 -0.21025428
-0.21653078 -0.27154094 -0.19133493 -0.29204378 -0.23670536 0.05072783 0.050312955 0.25543123
-0.31531906 -0.3663617 0.100237206 0.003114286 -0.08686911 -0.4099289 0.2212054 0.06138981
0.016121628 0.035382178 0.16552156 0.22874534 -0.117245674 0.10946605 0.08119185 0.0228111
0.031252153 -0.12244031 0.042076066 -0.13215138 -0.3347936 -0.13170289 0.52736974 -0.345184
-0.17369497 0.017827544 -0.12429969 -0.13911042 -0.16749051 0.26599813 -0.17574976 -0.20956337
0.3195416 -0.085382365 0.19781992 0.24978723 0.1988634 0.1943701 0.06333659 0.046856128
-0.04938275 0.03392289 0.016972113 -0.049970973 -0.05137423 -0.15657473 -0.16761918 0.10502361

actor_mean.2.bias f4 [64]
00000000: 9df7 653d 8a07 7b3d 8a25 633c 3ea2 3e3d
00000010: 0420 45bd a23f 2d3c c19e ac3d 4bf2 863d
00000020: 5c91 3dbc afa7 6fbc 4881 363c 41e3 363d
00000030: f175 2b3c a3d2 8cbd f8e4 6abb b44a 8dbd
00000040: 7152 3ebd d3a6 a33c c94d 1d3c dd0b e83b
00000050: 904e b6bd 4acb 1cbd b8a9 a33c f44f 5ebd
00000060: 39c0 64bd 7943 c1bd c7b1 8aba 0ec2 a53c
00000070: 2a4f 053d ccef 973d 3ea3 d7bc 82c4 7c3c
00000080: 35f8 be3c 74b4 ee3c efca 673d 1d61 d0bb
00000090: 9f5e d33c 7630 9d3b a7f2 023d dc6f 0fbd
000000a0: 9d81 90bb 31cd 22bd f012 95bd d0f2 fabc
000000b0: d165 19bd 851b e0bc c386 a23c 656b 0fbd
000000c0: c218 8dbd 037c 183e 30e3 e6bc 27e4 053d
000000d0: 7416 fb3c 0704 643d 0d93 48bc 85d6 383b
000000e0: cc2d 72bb fe89 c83a bef7 e6bc 375f 09bd
000000f0: c098 753d 64e0 2ebc da07 8a3c da64 66bd
0.056144346 0.061286487 0.0138639305 0.046541445 -0.048126236 0.010574253 0.084287174 0.065891825
-0.011570301 -0.014627381 0.0111392215 0.04465032 0.010465131 -0.06876113 -0.0035842042 -0.06899014
-0.04646534 0.019977009 0.009601065 0.0070814923 -0.08901703 -0.03827981 0.01997839 -0.054275468
-0.05584738 -0.094366975 -0.0010581546 0.020234134 0.0325462 0.074187845 -0.026322957 0.0154277105
0.023311714 0.029138781 0.056590017 -0.006359233 0.025801955 0.0047970368 0.031969693 -0.035018787
-0.0044099824 -0.039746467 -0.07279003 -0.03063336 -0.037450615 -0.027356872 0.01983965 -0.03501453
-0.06889488 0.14891057 -0.028184503 0.032688286 0.030650355 0.055667903 -0.012242091 0.0028204035
-0.0036953567 0.0015299914 -0.028194305 -0.03353807 0.059960127 -0.010673616 0.016849447 -0.056248523

actor_mean.4.weight f4 [4, 64]
00000000: 1026 913c 0b5e 0e3d c448 00bd e53f 9cbc
00000010: 9fa9 53bd 0703 063d a61e bfbc 2339 3cbb
00000020: f81d f4bb 4016 d1bc c3fd 943c cd0a 5cbc
00000030: a629 82bd 10cb 12bd 379d 4cbc 86fb 07bc
00000040: 66e9 8c3c e90f b93c 4e95 943b 3719 a33c
00000050: 2b81 41bc 7904 b7bc 977e efbb 9b29 62bb
00000060: 4ba4 e53c 85d5 1abc 661a a3ba 17fc dd3c
00000070: 8fd1 47bd 14fb eabb bd52 98bc 6abf 113d
00000080: fd3f 73bd 7db3 853b 6cc1 b1ba 1efe 8fbc
00000090: 83ae a4bb b266 22bc 1c11 28bc cc3b fabc
000000a0: 805b 813c 12ab c0bc 0f07 b63b 6784 743c
000000b0: bc09 56bc 21d5 97bc b559 d9bc 6a4c a3bc
000000c0: 3c67 e1bb b095 c2bc aeb2 9c3c bf31 3f3b
000000d0: 5560 063d d250 7f3c a808 8a38 c652 783c
000000e0: fe8d 823c f2e3 38bc 644e 353d dbd7 02bd
000000f0: 1d7d 033d b5d0 e7bc 88f5 443c 1f9d 573c
00000100: 5fd5 973c 776d 5dbd 2e9c f23c 7804 ac3c
00000110: c9c6 463c d094 2a3d 9fe1 a2ba 7f89 1ebc
00000120: 78cf da3c 2fe2 e53c a850 963c 0224 c93c
00000130: e8a6 2fbd b449 aabb 2c3c a6ba 101b d1bc
00000140: 27d2 b0bc c57d b93c 3360 4c3c 3e91 263d
00000150: 0294 94bc 2b05 c7bc 9359 983c 836b e6bb
00000160: bffb 0a3c 374c 15bd ce8c dabc 4c31 273d
00000170: cdd5 923c 628f 263c dd2d f0bc e608 a8bc
00000180: 6b52 cd3c 8ca3 133c c8d7 463d 33a1 74bc
00000190: e890 363c e6f2 1d3d a982 7aba 899c 933c
000001a0: 410c 183d 1c7e 21ba ea93 a53a f0a4 9abc
000001b0: f586 80bd 6e19 e7bb d92c c8b9 1a27 41bc
000001c0: 7855 5b3b bb55 a8bc 898a 853b 3693 dfbc
000001d0: c250 7dbc da45 363c 5ce1 72bb 40c4 ddbc
000001e0: a471 913c 1bd1 a03c 9c71 163c 9a80 57bd
000001f0: a1a0 6ebd c4f3 2dbd c3e3 6dbd 72d7 f4bc
00000200: e1aa 6dbd 8a47 f33c 75cd 343d 42ef 1f3d
00000210: b5b9 b6bb 1b4b 3bbd 6e0b 54bc 05f2 783c
00000220: e7a2 493d 021e 2abd f380 7dbc 8f60 3fbc
00000230: 9321 55bd 74ef c03a ef6f 2bbd 9fc7 84bd
00000240: d00c 833a 94be 8abd a006 6c3c d4d8 84bc
00000250: 43cd a9bb 3a35 4dbb 920b 44bd c834 90bc
00000260: 7030 f53c 4fc4 823c 2d4f fabc 3091 3fbd
00000270: 8a2c a23c 9d5c 823c 2e64 6cbc 1010 4a3d
00000280: 0c85 4fbd f198 3ebd ad56 54ba b242 02bd
00000290: 94fe a93b b230 1f3d 391f 133d b84b 053d
000002a0: 5186 573c 8ed9 6ebc 4256 083c d01a 76bd
000002b0: 9704 8f3c e559 33bc ef53 923d 49ae 28bc
000002c0: 9e47 49bb 24c8 3abb e388 bdbc 1835 74bc
000002d0: 81fe 7d3c 644e ed3a 2ccb 72bd e054 e2bc
000002e0: 261d 583d a859 82bd b580 1c3c 108d 033c
000002f0: eced eb3c cfea 2a3d 8115 b33b eec7 023d
00000300: 1c1e 7e3d 8032 33bd 1a12 863d 27e9 9cbd
00000310: 37b1 e8bc 51c8 96bd 8d1a 0ebe 2281 4abe
00000320: e154 ffb9 ef6b 5b3a ceba 44bd 88e1 0a3d
00000330: 6d43 86bd 5fb8 34bd bd11 513d 26db f7bd
00000340: c801 2cbd cf93 1dbd 2c93 3f3c da89 773d
00000350: e981 83bd 92dd a7bd 9ebb 03bd 2d4b 5d3b
00000360: 7025 2d3d be9d 9ebc 22a9 ccbc fe31 493d
00000370: bf4d 01bc 2d25 143d a62c adbd 664a d8bc
00000380: 55c9 a33d 9221 413c d7c3 1a3d 13e8 833d
00000390: 1b1b 1f3d 856a d9bc eac5 c9bc 1fd8 92bd
000003a0: fe34 e3bd b9f8 863d 4b60 4a3c 13d1 07ba
000003b0: 2349 cdbd 5ae1 e3bd fc56 ecbc 297e c23c
000003c0: 3c4d 00be 9711 0abd eb3c 9d3d 2b19 803d
000003d0: b95b 84bd b621 a33d 9fae 263d 698e 913d
000003e0: f471 bbbc 8852 6d3d 05e3 d0bc e6ce 28bd
000003f0: 7a27 3bbd f1c8 79bd 40e5 a33d 01ba 78bd
0.017718345 0.034757655 -0.031319395 -0.019073436 -0.051675435 0.03271773 -0.023330044 -0.002872058
-0.0074498616 -0.025523305 0.01818741 -0.0134303095 -0.063556 -0.035838187 -0.012488655 -0.008299714
0.017201137 0.022590594 0.0045344 0.019909484 -0.011810581 -0.022341 -0.007308792 -0.0034509662
0.028032443 -0.009450321 -0.001244378 0.027097745 -0.048783835 -0.007171044 -0.01859414 0.035582937
-0.059387196 0.0040802346 -0.0013561673 -0.017577227 -0.005025686 -0.00991218 -0.010257985 -0.030546091
0.0157907 -0.023519073 0.0055550407 0.014924145 -0.013063844 -0.018534245 -0.026532033 -0.019933898
-0.0068787616 -0.023753017 0.01912817 0.0029173938 0.032806713 0.015583234 6.581965e-05 0.0151564535
0.015936848 -0.011284815 0.044264212 -0.031944137 0.03210174 -0.028297761 0.01202143 0.013160019
0.01853436 -0.054059472 0.029615488 0.020998225 0.012132355 0.041645825 -0.001242686 -0.009676336
0.026710257 0.028061954 0.018349007 0.024553303 -0.042883784 -0.0051967744 -0.0012682728 -0.0255256
-0.021584583 0.02264298 0.012474108 0.040665857 -0.018136982 -0.024294456 0.0185974 -0.0070318594
0.0084828725 -0.036449637 -0.026678469 0.040818498 0.017924214 0.010166021 -0.029318744 -0.020512056
0.025063714 0.009011161 0.04854563 -0.014931011 0.011142947 0.038561724 -0.0009556213 0.018018978
0.03712106 -0.00061604544 0.0012632583 -0.018877476 -0.06275741 -0.007052592 -0.00038180387 -0.011789108
0.0033467691 -0.020548692 0.0040753526 -0.027291875 -0.015461149 0.011125052 -0.0037060594 -0.027071118
0.017754383 0.01963096 0.00918236 -0.05261288 -0.058258656 -0.0424688 -0.05807854 -0.029887889
-0.05802429 0.029697198 0.04414125 0.039046533 -0.005576337 -0.045725923 -0.012942178 0.015194421
0.04922762 -0.041532524 -0.015472638 -0.011680736 -0.052033972 0.00147198 -0.041854795 -0.06483387
0.0009998325 -0.06774631 0.014405876 -0.016216673 -0.00518194 -0.0031312243 -0.047862597 -0.017603293
0.029930323 0.015962748 -0.030555332 -0.04676932 0.019796629 0.015913302 -0.014428182 0.049331725
-0.050663993 -0.046532575 -0.0008100074 -0.031801887 0.005187819 0.0388648 0.035918448 0.032542914
0.013154582 -0.014578236 0.008321347 -0.060084164 0.017458243 -0.0109467255 0.07144915 -0.010295459
-0.0030712853 -0.002850064 -0.023136562 -0.014905237 0.015502573 0.0018105027 -0.05927579 -0.027628362
0.052762173 -0.06364757 0.0095521705 0.008029237 0.028799973 0.041727837 0.00546521 0.03192895
0.062040433 -0.043749332 0.06546421 -0.07661658 -0.028404815 -0.07362426 -0.13877316 -0.19775823
-0.0004870063 0.00083702704 -0.048029713 0.03390649 -0.06555829 -0.044121142 0.051042307 -0.12102346
-0.041993886 -0.03847104 0.011692803 0.0604342 -0.06421263 -0.08196558 -0.032161348 0.0033766732
0.04227203 -0.019362327 -0.024982993 0.049119942 -0.007892071 0.036168266 -0.08455782 -0.026402663
0.079973854 0.011787789 0.037784424 0.06440749 0.03884421 -0.02654005 -0.024630506 -0.07170128
-0.11094092 0.06590409 0.01235206 -0.0005180996 -0.10023715 -0.11126967 -0.028850071 0.023741798
-0.12529463 -0.03370818 0.07677635 0.062548004 -0.06462807 0.07965414 0.040693875 0.07107241
-0.022881486 0.057940036 -0.025498876 -0.04121294 -0.045691945 -0.06098265 0.0800271 -0.060724262

actor_mean.4.bias f4 [4]
00000000: e891 04bd 6988 133c 525a 0e3c f103 293d
-0.03236571 0.009004691 0.008688526 0.041263524
